mycroft/res/silero_vad.onnx (onnx, 797513 bytes, 88 tensors)

adaptive_normalization.filter_ f4 [1, 1, 7]
0	0x3d160c53	0.036632847
1	0x3de3e72b	0.11128076
2	0x3e5df27c	0.21674532
3	0x3e8a96da	0.27068216
4	0x3e5df27c	0.21674532
5	0x3de3e72b	0.11128076
6	0x3d160c53	0.036632847

first_layer.0.dw_conv.0.weight f4 [129, 1, 5]
0	0x3e8f8548	0.28031373
1	0x3ec6cdb9	0.3882883
2	0x3ec9fb71	0.39449647
3	0x3db19e8d	0.08672819
4	0x3e987245	0.2977468
5	0x3f295dc6	0.6615871
6	0x3c852091	0.01625088
7	0xbe847827	-0.2587292
8	0x3eae45f7	0.34037754
9	0x3e91ff39	0.28515032
10	0x3de83eae	0.1134008
11	0xbf6739d6	-0.90322626
12	0xbf2bdbd7	-0.67132324
13	0x3f578a7a	0.84195673
14	0x3f36c486	0.7139362
15	0x3f50d94c	0.8158157
16	0xbed9b421	-0.4252024
17	0xbf892222	-1.0713542
18	0x3e8f3aab	0.27974448
19	0x3ed179cd	0.4091324
20	0x3f5c220b	0.85989445
21	0x3ee0a16f	0.43873164
22	0xbf0a9dc3	-0.54146975
23	0xbf80d52b	-1.0065054
24	0x3e84f7b8	0.25970244
25	0xbe79a0a2	-0.24377683
26	0x3eb5d98b	0.35517535
27	0x3f5e270c	0.8677833
28	0x3eb32cfa	0.34995252
29	0xbe16c6ab	-0.14724223
30	0x3f1c0912	0.6095134
31	0x3e61d32b	0.2205321
32	0xbf60afeb	-0.8776843
33	0xbef6dd31	-0.4821563
34	0x3f14f224	0.5818198
35	0x3dc317b3	0.09526005
36	0x3ef27d53	0.4736124
37	0x3f0fc0bf	0.5615348
38	0x3f0237e6	0.50866544
39	0x3bfa2d01	0.0076347594
40	0x3f392983	0.72328967
41	0xbde8c251	-0.11365188
42	0xbf4f0844	-0.8087199
43	0xbeaada72	-0.33369786
44	0x3f0c470f	0.54795927
45	0xbba352ed	-0.0049842508
46	0x3e4aa53e	0.19789597
47	0xbf0ac7f3	-0.5421135
48	0x3f0cc3ba	0.54986155
49	0xbde5f69d	-0.112286784
50	0x3b4d6855	0.0031342704
51	0xbf37288d	-0.7154625
52	0xbeecdf8e	-0.4626431
53	0x3eae8716	0.34087437
54	0x3f40f62e	0.7537564
55	0x3f45e43e	0.77301395
56	0xbf172734	-0.59044194
57	0xbf29236d	-0.6606968
58	0x3ec13df9	0.37742594
59	0x3df167ef	0.11787402
60	0xbeb794cd	-0.35855713
61	0xbe48bfde	-0.19604442
62	0x3ed39917	0.41327736
63	0x3f3c077d	0.73448926
64	0xbf187a9a	-0.59562075
65	0x3ed5c4d9	0.41751745
66	0x3e8ee328	0.2790768
67	0xbf422649	-0.7583967
68	0xbefc46f4	-0.49272883
69	0x3f0d38ec	0.5516498
70	0x3f00a4bb	0.5025136
71	0xbe8b61fc	-0.27223194
72	0xbe789548	-0.24275696
73	0xbe4ea378	-0.20179546
74	0x3ed20467	0.41018984
75	0x3e526b01	0.20548631
76	0x3f21e7fa	0.63244593
77	0x3dbcd6c4	0.09220651
78	0x3e2b6de8	0.16741145
79	0x3e0e7f68	0.13915789
80	0x3eec8312	0.4619375
81	0xbec7f433	-0.39053497
82	0xbe35819c	-0.17725223
83	0xbe10499c	-0.1409058
84	0x3e53a23d	0.20667358
85	0x3ee4a208	0.4465487
86	0xbe84fed0	-0.25975657
87	0x3eeb4443	0.45950517
88	0xbe98b05c	-0.29822052
89	0xbf2a8b39	-0.66618687
90	0x3e8994c4	0.26871312
91	0xbe9df198	-0.30848384
92	0xbe07c70d	-0.13259526
93	0xbd4c947b	-0.04994629
94	0x3e61734c	0.22016639
95	0xbf02ec92	-0.5114223
96	0xbe452f4d	-0.19256325
97	0xbefd28d0	-0.494452
98	0xbed86ab7	-0.42268917
99	0xbec82ac7	-0.39095137
100	0xbe291ce8	-0.16514933
101	0xbdab69dd	-0.08369801
102	0xbf03a8ed	-0.51429635
103	0xbdc97874	-0.09837428
104	0xbeaffecd	-0.34374085
105	0x3db82e8f	0.08993255
106	0x3f7c43f9	0.9854122
107	0xbee934b3	-0.4554802
108	0xbebd6f28	-0.36998868
109	0x3e2a266d	0.16616221
110	0xbf0b1697	-0.54331344
111	0x3c17c72d	0.009263796
112	0x3f5ddcce	0.86665046
113	0xbe0ab6ce	-0.13546297
114	0xbecc6f23	-0.3992854
115	0xbe87bd6c	-0.26511705
116	0xbf18f45e	-0.59747875
117	0x3e92ff31	0.2871032
118	0xbed39ef6	-0.41332215
119	0x3f4e77e8	0.8065171
120	0xbc8fa95f	-0.017536817
121	0x3e3dcf46	0.185361
122	0x3f27110f	0.65260404
123	0x3e536880	0.20645332
124	0x3de247ed	0.11048875
125	0xbec040cb	-0.37549433
126	0x3f62aec4	0.8854792
127	0x3e22d8d6	0.15903029
128	0xbf237326	-0.6384758
129	0x3df1ce32	0.11806907
130	0x3e9c5b60	0.30538464
131	0xbeb65582	-0.35612112
132	0xbdc2aa35	-0.09505121
133	0xbea08a3a	-0.31355458
134	0x3e85a82e	0.26104873
135	0xbeffe7af	-0.49981448
136	0xbef6a4c4	-0.4817258
137	0xbcce7553	-0.025202429
138	0xbe1a2fef	-0.15057348
139	0x3f36e460	0.7144222
140	0xbeaa7e5c	-0.3329953
141	0x3df506ba	0.119641736
142	0x3f2349b8	0.6378436
143	0x3d9b90d8	0.07595986
144	0xbe9daf97	-0.30798027
145	0x3dadc87a	0.084855035
146	0x3e50c2e0	0.20386839
147	0x3eb162eb	0.3464578
148	0x3e194197	0.14966427
149	0x3e881fcc	0.2658676
150	0x3e9e14ac	0.30875146
151	0x3f02ad5e	0.5104579
152	0xbf084198	-0.5322509
153	0xbecf649e	-0.40506452
154	0x3f00477f	0.50109094
155	0xbdeca81c	-0.11555502
156	0xbda24590	-0.07923424
157	0xbec67820	-0.38763523
158	0xbea45e9c	-0.3210343
159	0xbecc7481	-0.39932635
160	0x3ef5a802	0.47979742
161	0xbef7768f	-0.4833264
162	0xbc718c3d	-0.014742908
163	0xbe07c5be	-0.13259026
164	0x3deaa27c	0.11456773
165	0xbea97f70	-0.3310504
166	0xbdfd66a1	-0.123730905
167	0x3dcdbc6e	0.10045706
168	0xbd2720f0	-0.040802896
169	0xbe053711	-0.13009287
170	0xbc6fb655	-0.014630874
171	0xbe8feb05	-0.28108993
172	0x3c962caf	0.018331854
173	0xbe860c61	-0.2618132
174	0x3e46c885	0.1941243
175	0xbd854790	-0.0650779
176	0xbe2d90ca	-0.16949764
177	0x3ed6a1c4	0.41920292
178	0xbd3b8b01	-0.04578686
179	0x3e5c6e23	0.21526389
180	0xbe763c02	-0.24046329
181	0xbe62c46c	-0.22145241
182	0xbed91296	-0.42396992
183	0xbe07d113	-0.13263349
184	0xbed4e7ba	-0.41583043
185	0xbe5baa1f	-0.21451615
186	0xbf19fb02	-0.6014863
187	0xbe6992e1	-0.22809936
188	0xbe44ddae	-0.19225189
189	0x3efe7aa5	0.49702945
190	0xbcba4222	-0.022736613
191	0x3ce8f917	0.028439088
192	0x3ec4421d	0.3833169
193	0x3ebb171f	0.36541077
194	0x3d600ec4	0.05470158
195	0x3dfcd1cf	0.12344705
196	0xbe3bb031	-0.1832893
197	0xbdae1a04	-0.08501056
198	0xbe4aa882	-0.19790843
199	0x3de66359	0.11249418
200	0x3eb15fd7	0.34643432
201	0x3de0ba68	0.10973054
202	0xbec9fd65	-0.39451137
203	0xbf1fc033	-0.6240265
204	0x3f2ec6db	0.6827218
205	0xbe90162f	-0.28141925
206	0xbe0bf31e	-0.1366696
207	0xbf2e5029	-0.68091065
208	0xbe8573ea	-0.26064998
209	0xbe4c46fb	-0.19948952
210	0xbec9ba19	-0.39399794
211	0xbe96b858	-0.29437518
212	0x3eeff242	0.46864516
213	0xbe0bc816	-0.13650545
214	0xbebb3c5a	-0.36569482
215	0xbe93aa0f	-0.28840682
216	0x3f49c2bb	0.7881276
217	0xbf0880da	-0.5332161
218	0x3d5e061c	0.054205045
219	0xbce38789	-0.02777459
220	0xbeb33cbe	-0.3500728
221	0xbe13e036	-0.14440998
222	0x3f014d73	0.50508803
223	0x3e869e22	0.2629252
224	0x3deba7ee	0.115066394
225	0x3d83896e	0.06422697
226	0xbdcc823c	-0.09985778
227	0xbd91b1d4	-0.07113996
228	0xbdd30842	-0.103043094
229	0x3e27f90a	0.16403595
230	0xbdb47de2	-0.08813073
231	0xbe8cf18d	-0.2752804
232	0x3de0cae5	0.10976199
233	0xbe0f65ab	-0.14003627
234	0xbe061b8b	-0.13096444
235	0x3ded1669	0.1157654
236	0xbf0bf2d7	-0.5466742
237	0xbe2cb8f5	-0.1686743
238	0xbef76d7c	-0.48325717
239	0x3ebc3f09	0.36766842
240	0xbdc3ac7b	-0.095543824
241	0x3dbf77b8	0.093490064
242	0x3f007c4c	0.5018966
243	0x3e20f269	0.15717472
244	0xbadbefb4	-0.0016779811
245	0xbefb7360	-0.49111462
246	0xbe89b1ab	-0.26893362
247	0x3f3140f9	0.69239765
248	0x3d9b3df1	0.07580174
249	0xbee674d2	-0.45011002
250	0xbc47dfc6	-0.012199348
251	0x3ee9da90	0.45674562
252	0xbef4b21b	-0.47792134
253	0x3e489c72	0.19590929
254	0x3d5e9777	0.054343667
255	0xbeef6570	-0.46757078

first_layer.0.dw_conv.0.bias f4 [129]
0	0xc000ebf8	-2.0144024
1	0x3dde73ed	0.10861955
2	0xbed0871e	-0.40728086
3	0xbc76251c	-0.015023496
4	0xbd093032	-0.03349323
5	0xc023a78f	-2.557102
6	0xbd935d1b	-0.07195493
7	0xc020a992	-2.5103498
8	0xbc8345ed	-0.016024554
9	0x3edcfae2	0.43160158
10	0xbc53b9bd	-0.012922701
11	0xbdba338b	-0.09091862
12	0x3a006553	0.0004897911
13	0x3e1c3f49	0.15258516
14	0x3f2d06e3	0.67588633
15	0xbfec97a6	-1.848378
16	0x3f5e8f05	0.8693698
17	0xbc14ffb6	-0.009094169
18	0x3f826cb1	1.018942
19	0x3d111e0a	0.035429038
20	0x3f2f740d	0.68536454
21	0xbf001067	-0.5002503
22	0xbc9d5e51	-0.019210013
23	0x3c006a05	0.007837777
24	0xbfe7d34a	-1.8111355
25	0xbeec861d	-0.4619607
26	0x3f5619b0	0.83632946
27	0x3c0aa2e9	0.008461692
28	0xbf350b09	-0.70719963
29	0xbf6bb9dd	-0.9208048
30	0xbf0ef8f3	-0.55848616
31	0x3ed6124f	0.41810843
32	0x3ec1be4b	0.37840495
33	0x3f542b09	0.82878166
34	0x3f5c5e74	0.86081624
35	0xbf6d64ed	-0.92732126
36	0xbddf6bd0	-0.109092355
37	0xbcec3f04	-0.028838642
38	0xbfc9daa0	-1.5769844
39	0x3f9c4dca	1.2211239
40	0x3bf02245	0.007328304
41	0xbe92b135	-0.28650823
42	0x3f06fb3d	0.5272711
43	0xbd1b6a8b	-0.037943404
44	0xbf76a674	-0.9634774
45	0x3fa9bcbc	1.3260722
46	0x3f3880ce	0.7207154
47	0xbcbbe5c9	-0.022936719
48	0xbeb02562	-0.3440352
49	0xbcd16fc0	-0.025565982
50	0x3e115bce	0.14195177
51	0xbefbeb87	-0.4920313
52	0x3d8f1aa9	0.06987507
53	0x3f02b2b2	0.5105392
54	0x3fb322bc	1.3994975
55	0x3fa79453	1.309214
56	0xbee0ebe4	-0.4392997
57	0x3f3a9be5	0.72894126
58	0x3f8dc2c9	1.1075069
59	0xbeccde69	-0.40013435
60	0xbf378ba8	-0.71697474
61	0x3fca1361	1.5787164
62	0x3ea95dca	0.33079368
63	0x3d113d75	0.035459
64	0xbf247f34	-0.64256597
65	0x3cd2f139	0.02574979
66	0x3cb90a82	0.022588018
67	0x3f224d61	0.6339932
68	0xbb978f15	-0.004625211
69	0xbf3e09a7	-0.7423348
70	0x3c703d88	0.014663108
71	0x3e154407	0.14576732
72	0xbbfc5461	-0.0077004884
73	0x3e664b0a	0.22489563
74	0xbdf4d938	-0.11955494
75	0x3d1f1b04	0.038844123
76	0xbea60359	-0.3242443
77	0xb7cd9da2	-2.4511308e-05
78	0xbec07572	-0.37589604
79	0x3f93d4cf	1.1549319
80	0xbf3d3251	-0.739049
81	0x3ea2c87c	0.31793582
82	0xbd697d85	-0.05700447
83	0x3eb951ae	0.3619513
84	0xbbb9192c	-0.0056487527
85	0xbcde29d4	-0.027119555
86	0x3e102372	0.14076021
87	0xbbf738e0	-0.007544622
88	0x3f9e9ec9	1.2392207
89	0x3f032e1e	0.51242244
90	0x3f8b3556	1.0875652
91	0xbd0c056d	-0.034184862
92	0x3ef5fd39	0.48044756
93	0x3f7f585d	0.99744207
94	0xbc9ae856	-0.018909615
95	0xbe969092	-0.29407173
96	0x3f6dc529	0.9287897
97	0x3ef54da6	0.47910804
98	0xbfe88342	-1.8165057
99	0x3e8ce7ae	0.27520508
100	0xbf9a7fa3	-1.2070202
101	0x3f5cc862	0.8624326
102	0x3f2c0dde	0.6720866
103	0xbcc2cfe3	-0.023780769
104	0x3f91fc5a	1.1405137
105	0xba007770	-0.000490061
106	0x3f3de0e8	0.74171305
107	0x3f99f210	1.2026997
108	0xbf7f797c	-0.99794745
109	0xbcaa73ab	-0.020807108
110	0xbf93a83c	-1.1535716
111	0xbfc2c767	-1.5217103
112	0xbf137fc8	-0.57616854
113	0x3e4c03e0	0.19923353
114	0x3f893288	1.0718546
115	0x3e98f8f4	0.29877436
116	0x3f337657	0.7010245
117	0xbc9655ed	-0.01835152
118	0x3b8d637a	0.004314837
119	0x3fac23ed	1.3448464
120	0x3fb21aa9	1.3914386
121	0x3fce30b0	1.6108608
122	0x3f4c4478	0.79791975
123	0x3f31ecb3	0.695018
124	0xbc6167bf	-0.013757645
125	0xbdd5d4f0	-0.10441005
126	0x3f8184ab	1.0118612
127	0xbf527bd9	-0.82220227
128	0x3ffef71f	1.9919165

first_layer.0.pw_conv.0.weight f4 [16, 129, 1]
0	0x3e1a1e26	0.15050563
1	0xbc8e71dd	-0.017388279
2	0xbf480be3	-0.7814314
3	0xbf9cb33e	-1.22422
4	0xbf9e5eae	-1.2372644
5	0x3e9b389b	0.30316624
6	0xbfcf5108	-1.6196604
7	0x3e7aa238	0.24475944
8	0xbfb4605d	-1.4091908
9	0x3e6cafdd	0.23113962
10	0xbe88725f	-0.26649758
11	0xbfb651fa	-1.4243767
12	0xbf2552a3	-0.6457922
13	0xbf68db85	-0.9095996
14	0x3dcf9c61	0.10137249
15	0x3ed7e869	0.42169502
16	0xbd1af7f9	-0.03783414
17	0x3e1f444b	0.15553395
18	0x3d4e0e11	0.050306384
19	0x3f2686a0	0.6504917
20	0x3f067a3b	0.5253026
21	0xbe3ac32e	-0.18238518
22	0xbe19995f	-0.14999913
23	0x3d56125d	0.052263606
24	0x3f1b853e	0.60750186
25	0xbea3835a	-0.3193615
26	0xbdded05d	-0.10879586
27	0x3d961216	0.07327668
28	0xbed9e0fc	-0.42554462
29	0x3eea309e	0.45740217
30	0xbf05930a	-0.5217749
31	0x3f06606e	0.5249089
32	0xbe248953	-0.1606801
33	0x3e83f9e9	0.25776604
34	0x3dc8b175	0.09799472
35	0x3d3a2c5f	0.04545247
36	0x3eb465d3	0.35233936
37	0x3e7cfa17	0.24704777
38	0xbe384b7d	-0.17997546
39	0x3dfd34fe	0.12363623
40	0xbeb60507	-0.3555071
41	0x3eed1cbf	0.46310994
42	0xbc74c556	-0.014939627
43	0x3c709a34	0.014685202
44	0x3e974889	0.29547527
45	0x3e713144	0.2355395
46	0x3e07515a	0.13214627
47	0xbd382cbf	-0.04496455
48	0x3ebdb305	0.37050644
49	0xbcb1e62f	-0.021716205
50	0x3e9029ff	0.2815704
51	0xbea29a9c	-0.31758583
52	0x3ef62a27	0.48079035
53	0xbd7f2527	-0.06229129
54	0x3ea117ff	0.3146362
55	0x3e396841	0.18106176
56	0x3ed18852	0.40924317
57	0x3ebb63b1	0.36599496
58	0x3dbab5d4	0.09116712
59	0x3eac71ef	0.33680674
60	0x3e945f1b	0.2897881
61	0x3e8a28c3	0.26984224
62	0x3f18aafc	0.596359
63	0x3efe43b8	0.4966104
64	0x3e7979bd	0.24362846
65	0xbde8d621	-0.11368967
66	0xbe678a2f	-0.22611307
67	0xbe279531	-0.16365506
68	0xbe0bdf80	-0.13659477
69	0x3de81961	0.11332966
70	0xbe9ceab2	-0.30647808
71	0x3f410635	0.75400096
72	0x3e0e18bb	0.13876621
73	0x3f2fb481	0.686348
74	0xbc6edbc7	-0.014578766
75	0xbdede799	-0.11616439
76	0x3f1cfaea	0.61320364
77	0x3d8bd707	0.068281226
78	0x3ede3d01	0.43405917
79	0x3ee9843d	0.45608702
80	0x3c51a634	0.012795974
81	0x3f11b55e	0.5691737
82	0xbe244a31	-0.16043927
83	0x3efe73f5	0.49697843
84	0x3e2ccff3	0.16876201
85	0x3f01bdd3	0.50680274
86	0x3edfa59a	0.4368103
87	0x3e2c105a	0.16803113
88	0x3ef51287	0.47865698
89	0x3f22169b	0.63315743
90	0x3ebdb09c	0.37048805
91	0x3d8ef002	0.069793716
92	0x3eba6de5	0.36411968
93	0x3f2b4139	0.66896397
94	0x3d16b160	0.03679025
95	0x3e5501d9	0.20801486
96	0x3e19f61b	0.15035288
97	0x3f03d8e6	0.51502836
98	0x3de61f22	0.11236407
99	0x3f015550	0.505208
100	0x3d3211fd	0.043474186
101	0x3f057fae	0.5214795
102	0x3ef04259	0.4692562
103	0xbdbd0038	-0.09228557
104	0x3f0a70dd	0.54078466
105	0x3e30a8c1	0.17251875
106	0x3e967778	0.29388022
107	0x3f29bb02	0.66300976
108	0x3dbc0690	0.09180939
109	0x3d20c252	0.03924782
110	0x3c785b65	0.015158509
111	0x3e627a2a	0.22116914
112	0x3d6d8d45	0.057996053
113	0x3c9b3ba4	0.018949337
114	0x3ed12254	0.40846503
115	0x3e903870	0.28168058
116	0xbe0e2c29	-0.13884033
117	0xbd2a771d	-0.0416175
118	0x3e4697c8	0.19393837
119	0x3e560ce4	0.20903355
120	0x3f17d799	0.5931335
121	0x3ec2dae4	0.38057625
122	0x3eec5cd5	0.46164575
123	0x3e400d83	0.18755154
124	0x3d72667d	0.05917977
125	0x3f24fa84	0.64444757
126	0xbe14b88c	-0.14523524
127	0xbe95b056	-0.29236096
128	0x3d57f437	0.052723136
129	0xbcca6871	-0.024708005
130	0xbda37948	-0.07982117
131	0xbe9a6cb5	-0.30161062
132	0x3e7c8fe5	0.24664266
133	0xbf2958ed	-0.66151315
134	0x3f5da777	0.86583656
135	0xbeddce10	-0.43321276
136	0x3f059793	0.5218441
137	0xbeb22570	-0.34794188
138	0xbd22becc	-0.03973274
139	0xbdff200d	-0.12457285
140	0xbf160c3f	-0.58612436
141	0xbee00250	-0.43751764
142	0xbebe74ff	-0.37198636
143	0x3dab85f3	0.08375158
144	0x3e27132f	0.16315912
145	0x3e21f678	0.15816677
146	0x3de57dec	0.11205658
147	0x3e2e69f7	0.1703261
148	0x3ea347ed	0.31890813
149	0x3eeed362	0.46645647
150	0xbdb7c8a6	-0.089738175
151	0xbd9f818c	-0.07788381
152	0xbd457042	-0.04820276
153	0x3e26f413	0.16304044
154	0xbe665b8e	-0.22495863
155	0x3e4fa8d1	0.20279242
156	0xbd8ddf24	-0.06927326
157	0xbf204a96	-0.6261381
158	0x3e445c72	0.1917589
159	0xbecfc368	-0.4057877
160	0x3ec3415c	0.38135803
161	0x3e0d9920	0.13827944
162	0xbd06276c	-0.03275244
163	0x3e8f1ead	0.2795309
164	0xbdc22745	-0.09480146
165	0x3e6cd941	0.23129751
166	0x3cc5401d	0.024078423
167	0xbf4dc62f	-0.8038053
168	0x3f0ac582	0.54207623
169	0xbde5693a	-0.11201711
170	0x3e8d6f0a	0.2762378
171	0x3c08d6eb	0.008352022
172	0xbdc04c51	-0.09389556
173	0xbf15885d	-0.584112
174	0x3f03a8d8	0.5142951
175	0x3e6106b4	0.21975213
176	0x3e300417	0.1718906
177	0xbdddfa51	-0.1083876
178	0xbdafa0f6	-0.08575623
179	0xbdf07a50	-0.11742079
180	0xbedee872	-0.43536717
181	0xbe0f02c8	-0.13965905
182	0x3e5a8ef7	0.213436
183	0x3f04e8a4	0.5191748
184	0x3f11b971	0.56923586
185	0xbd6294af	-0.055317577
186	0x3e99f3ee	0.30068916
187	0x3ec43721	0.3832331
188	0xbe9286f2	-0.2861858
189	0xbe1ff41c	-0.15620464
190	0x3efb914d	0.49134293
191	0xbd5d7769	-0.054068957
192	0xbe31b6fe	-0.17354962
193	0xbe617b48	-0.22019684
194	0x3e2c3a86	0.168192
195	0x3ddf5ae1	0.10906006
196	0x3e366d68	0.17815173
197	0x3e224e1f	0.15850113
198	0xbd47ab7e	-0.048747532
199	0x3e2ac303	0.16675954
200	0xbc8ec8b9	-0.017429696
201	0x3dc5cfab	0.0965875
202	0xbdf58f2a	-0.11990197
203	0xbed4f2de	-0.41591543
204	0x3e83f73e	0.25774568
205	0x3d0c0a5d	0.03418957
206	0xbeb81658	-0.35954547
207	0xbd810040	-0.06298876
208	0x3eefb274	0.46815836
209	0x3ec5d759	0.3864086
210	0xbe5575cd	-0.20845719
211	0xbdf143ab	-0.11780485
212	0xbd0d9480	-0.03456545
213	0xbe2f5510	-0.17122293
214	0xbd0e67b2	-0.03476686
215	0x3aa0878e	0.001224743
216	0xbecb32cb	-0.3968719
217	0x3e45fefc	0.1933555
218	0xbd0cff28	-0.034423023
219	0x3e8c41d7	0.27393982
220	0xbe931286	-0.2872507
221	0x3da7b71f	0.081892245
222	0x3dbda572	0.09260072
223	0x3e6735a0	0.2257905
224	0xbc35f568	-0.011105873
225	0x3e9aed26	0.30259055
226	0xbd0303cc	-0.031986043
227	0xbf1ebccf	-0.6200685
228	0x3e15e807	0.14639293
229	0x3edf5ce7	0.43625566
230	0xbd796dc7	-0.060895707
231	0xb8009824	-3.065927e-05
232	0xbebaa004	-0.36450207
233	0x3e36725d	0.17817064
234	0xbedc968c	-0.43083608
235	0x3e7e17c9	0.24813761
236	0x3caab1db	0.020836761
237	0x3d015850	0.031578362
238	0x3e4bdd49	0.19908632
239	0x3cf2a0ea	0.029617745
240	0xbe68d908	-0.22739041
241	0x3e43b99d	0.19113775
242	0xbe744061	-0.23852684
243	0xbec8f7d9	-0.39251593
244	0x3ddfeb71	0.10933579
245	0xbbaa125e	-0.005190178
246	0xbe3b8b16	-0.18314776
247	0xbf54669c	-0.8296907
248	0xbf0ea0b3	-0.5571396
249	0xbe52012b	-0.20508258
250	0xbf31526a	-0.6926638
251	0xbe4f4fe6	-0.20245323
252	0xbd9d70e2	-0.07687546
253	0xbeb02427	-0.34402582
254	0xbf083490	-0.53205204
255	0xbf4c1822	-0.79724324

first_layer.0.pw_conv.0.bias f4 [16]
0	0x3eb54dde	0.3541097
1	0x3e9dabd0	0.30795145
2	0xbe549bc4	-0.20762545
3	0x3d4607b8	0.048347205
4	0x3f93051b	1.1485933
5	0xbe1b5637	-0.15169607
6	0x3e3547a1	0.17703106
7	0xbf12a5b7	-0.5728411
8	0xbc347997	-0.011015317
9	0xbe0da8db	-0.13833944
10	0xbeb874c3	-0.36026582
11	0xbec9b1bc	-0.39393413
12	0xbe63fdb4	-0.22264749
13	0xbe463e8d	-0.19359799
14	0xbd48438c	-0.048892543
15	0xbedcac93	-0.43100414

first_layer.0.proj.weight f4 [16, 129, 1]
0	0x3e18caa4	0.14921051
1	0xbce27ce0	-0.027647436
2	0xbf5d5e5c	-0.86472106
3	0xbe81dba6	-0.2536289
4	0x3e9cc5ba	0.30619603
5	0x3f2e18a1	0.6800633
6	0xbdae5b95	-0.08513562
7	0x3dfde980	0.12398052
8	0xbce0c72b	-0.02743872
9	0x3ee818f5	0.4533154
10	0x3eb4fe34	0.35350192
11	0x3d39ff20	0.04540932
12	0x3e867959	0.26264456
13	0x3da67b2f	0.08128964
14	0x3df18b57	0.11794155
15	0xbc936afa	-0.017995346
16	0xbc93d2aa	-0.018044788
17	0x3e103a44	0.14084727
18	0x3cc23565	0.023707101
19	0x3da470a3	0.08029296
20	0x3dd9ad81	0.10628796
21	0xbd22c785	-0.039741058
22	0x3ce3838b	0.027772686
23	0x3d7212eb	0.059100073
24	0xbd659d15	-0.05605801
25	0x3d57a257	0.052645054
26	0x3e3563ab	0.17713802
27	0x3dc59bab	0.09648832
28	0x3e272de1	0.16326095
29	0x3bc9c7f6	0.0061578704
30	0x3da0c085	0.0784922
31	0x3e384af9	0.1799735
32	0x3d83d07d	0.0643625
33	0xbcf2c76b	-0.029636106
34	0x3d39b371	0.045337144
35	0x3c943c32	0.01809511
36	0x3d51ccf3	0.051220845
37	0x3d83bd34	0.06432572
38	0x3d0a7428	0.03380218
39	0x3d133286	0.035936855
40	0xbd84f10d	-0.06491289
41	0x3e128307	0.14307795
42	0xbd1ff250	-0.039049447
43	0x3df233ac	0.11826262
44	0x3dc50a7b	0.096211396
45	0x3d64f152	0.055894203
46	0x3d4adc33	0.049526405
47	0x3c9ac3d7	0.018892212
48	0x3ba684e8	0.0050817616
49	0xbd21de8d	-0.03951888
50	0x3e178bd7	0.14799438
51	0x3db8f693	0.09031405
52	0x3e0abf37	0.13549505
53	0x3dd9c778	0.10633749
54	0x3d9143b1	0.07092989
55	0x3d953ef6	0.072873995
56	0x3e84aa19	0.25911024
57	0x3df2ff1b	0.11865064
58	0x3da6ef4a	0.081511095
59	0xbd2b0050	-0.041748345
60	0x3d83ebb3	0.064414404
61	0x3db61f5c	0.088927
62	0xbb1ce15d	-0.0023938038
63	0xbcd15f6c	-0.025558196
64	0x3dc78cb3	0.09743633
65	0x3e07b68f	0.13253234
66	0x3dbf34cd	0.09336243
67	0x3e19b1cf	0.15009235
68	0x3d9ecc97	0.07753866
69	0x3de8f84a	0.113754824
70	0x3cdc15b3	0.026865816
71	0x3cc2e065	0.02378864
72	0x3cc35fa4	0.023849316
73	0xbd381f59	-0.04495177
74	0x3d3998ea	0.045311846
75	0x3d646938	0.055764407
76	0x3d46de4d	0.048551846
77	0xbcc62762	-0.024188701
78	0x3df293c8	0.11844593
79	0x3d915df6	0.07098
80	0x3d9f54af	0.07779824
81	0xbda48ede	-0.08035062
82	0x3d9d6c11	0.07686628
83	0xbd7ba970	-0.061440885
84	0x3be718f0	0.0070525333
85	0x3e3f98e9	0.18710674
86	0xbd695e32	-0.056974597
87	0x3d80d6e0	0.06290984
88	0x3d1a7dd5	0.03771766
89	0xbd2130c0	-0.039353132
90	0x3a43a5c9	0.00074633636
91	0x3da2c7a4	0.07948235
92	0xbdf6ce9a	-0.12051125
93	0x3d604807	0.05475619
94	0x3cc55140	0.024086595
95	0x3c853d02	0.016264442
96	0x3d912dbf	0.070888035
97	0xbca21338	-0.019784555
98	0xbc67dbe1	-0.014151544
99	0xbc6ee27c	-0.014580365
100	0x3c04c66a	0.008103946
101	0xbcbfbbfc	-0.023405068
102	0xbb058f41	-0.0020379575
103	0xbd4b4ed8	-0.049635738
104	0xbd1fbd29	-0.038998757
105	0xbc336e36	-0.010951569
106	0xbdb0bb36	-0.08629458
107	0xbdcc6795	-0.09980694
108	0x3cd9d6e5	0.026591728
109	0x3b88b2c6	0.004171702
110	0x3d9b16f2	0.07572736
111	0x3d86cb9a	0.06581803
112	0x3d83076d	0.06397901
113	0x3cf39930	0.029736131
114	0x3d5bb000	0.053634644
115	0x3e0c434c	0.13697547
116	0x3de9f993	0.11424556
117	0x3cc7e064	0.02439899
118	0xbd5bd870	-0.053673208
119	0xbd96e2d1	-0.073674805
120	0x3cdb3eba	0.026763309
121	0xbde3ad96	-0.11117093
122	0x3dae0230	0.08496511
123	0x3cf58861	0.029972257
124	0x3d815399	0.06314773
125	0x3d9b3ea2	0.07580306
126	0x3d0d4cfe	0.034497254
127	0x3e28dd38	0.16490638
128	0x3bf313e3	0.007418142
129	0xbdcdd461	-0.10050274
130	0x3ce225e0	0.02760595
131	0xbf047bba	-0.5175129
132	0x3e60f11c	0.21966976
133	0x3f21a438	0.631412
134	0x3f4641b6	0.77444017
135	0x3ee3d37f	0.44497296
136	0x3e882a8c	0.2659496
137	0x3e3d73bb	0.18501179
138	0x3e3df384	0.18549925
139	0x3e55f3a4	0.20893723
140	0xbd86ba72	-0.0657853
141	0x3d42bf12	0.0475455
142	0xbd7cfea5	-0.061766285
143	0xbd8dbe54	-0.06921068
144	0xbdcf544e	-0.10123502
145	0xbd887fc7	-0.066649966
146	0x3cdad6b3	0.026713705
147	0xbdacb094	-0.08432117
148	0xbc5ead9c	-0.013591196
149	0x3c5ee563	0.013604495
150	0x3c90f689	0.017695682
151	0xbdcb9184	-0.09939864
152	0xbde66fe1	-0.11251808
153	0xbd77951c	-0.060444936
154	0xbb9996af	-0.0046871523
155	0xbce0abb5	-0.027425626
156	0xbde84643	-0.11341526
157	0xbd0df2fd	-0.03465556
158	0x3c20c8b9	0.009813481
159	0xbe15778c	-0.14596385
160	0xbd60cb56	-0.054881416
161	0xbdfc56d3	-0.12321248
162	0xbdbdf8f1	-0.092759974
163	0xbd299f2a	-0.041411556
164	0xbcbae234	-0.02281294
165	0xbd24ebae	-0.040263824
166	0xbd2d6997	-0.042337026
167	0xbc794c09	-0.015215882
168	0xbdbaa8a8	-0.091142
169	0xbd754499	-0.059879873
170	0xbc52713b	-0.012844379
171	0xbb2728fe	-0.002550661
172	0xbdd35893	-0.103196286
173	0x3d077d9d	0.03307878
174	0x3bb342b2	0.005470597
175	0xbd4eb3b3	-0.050464343
176	0xbdbd8344	-0.092535526
177	0x39098564	0.0001311503
178	0xbdb77539	-0.08957905
179	0xba14da63	-0.0005678294
180	0xbc931cc2	-0.017958049
181	0xbe2071af	-0.15668367
182	0xbd5beb8b	-0.05369143
183	0xbd9f00fd	-0.077638604
184	0xbdf29209	-0.1184426
185	0xbcf33059	-0.02968614
186	0x3c31b778	0.010846965
187	0xbe28859e	-0.16457221
188	0xbcb09e4b	-0.021559855
189	0xbd111dc5	-0.03542878
190	0xbe0ef308	-0.13959897
191	0xbdde8bd0	-0.10866511
192	0xbc7f5de5	-0.015586351
193	0xbde6d0ff	-0.112703316
194	0xbde39f12	-0.11114325
195	0xbe196e1c	-0.1498341
196	0xbda58756	-0.08082454
197	0xbde31e4f	-0.11089765
198	0xbdcd450a	-0.10022934
199	0xbde17b1b	-0.11009809
200	0xbd84c32b	-0.06482538
201	0xbe2d70f8	-0.16937625
202	0xbd2d0692	-0.042242594
203	0xbdfff86a	-0.12498553
204	0xbdbd9a55	-0.09257952
205	0xbda9aeab	-0.082852684
206	0xbe0b11c7	-0.13581
207	0xbdf9c68d	-0.12196074
208	0xbd8d798a	-0.06907947
209	0xbd57e57b	-0.052709084
210	0xbcaa54ce	-0.020792391
211	0xbe24bfe5	-0.16088827
212	0xbdc8117e	-0.09768961
213	0xbe3f0a45	-0.18656261
214	0xbe3b2a29	-0.18277802
215	0xbde5a5cd	-0.112132646
216	0xbdc3ebf3	-0.09566488
217	0xbe146e64	-0.14495236
218	0xbdeff5c1	-0.11716796
219	0xbdecc92c	-0.11561808
220	0xbde4d435	-0.11173288
221	0xbddd75cd	-0.10813484
222	0xbde4c394	-0.11170116
223	0xbd95aedd	-0.07308743
224	0xbdbf6ebd	-0.093472935
225	0xbe09c260	-0.13453054
226	0xbda4bd33	-0.080438994
227	0xbe406861	-0.18789817
228	0xbe129905	-0.14316185
229	0xbd3187c6	-0.043342374
230	0xbdb0c83d	-0.086319424
231	0xbd758b26	-0.059947155
232	0xbe227329	-0.15864243
233	0xbd6cc78e	-0.057807498
234	0xbe0d01d1	-0.13770224
235	0xbe01297d	-0.12613483
236	0xbdc80ee3	-0.097684644
237	0xbde9281d	-0.11384604
238	0xbde33e4a	-0.11095865
239	0xbdfe4cdd	-0.12417004
240	0xbdc189b1	-0.09450091
241	0xbd9433a9	-0.07236416
242	0xbda34813	-0.079727314
243	0x3db12488	0.08649546
244	0xbd05d2c0	-0.03267169
245	0xbb956928	-0.0045596547
246	0xbd750d44	-0.059827104
247	0xbe2ffdb9	-0.17186631
248	0x3c32920f	0.010899081
249	0xbe0aa0ec	-0.1353795
250	0x3d8b0c3b	0.06789442
251	0xbe18763c	-0.14888853
252	0xbe006f77	-0.1254252
253	0xbdff0806	-0.12452702
254	0xbdb37c8e	-0.08763991
255	0xbcbf97e2	-0.023387853

first_layer.0.proj.bias f4 [16]
0	0x3ea310f4	0.31848872
1	0x3e994af5	0.2994
2	0xbe249379	-0.16071881
3	0x3d6ae1e8	0.057344347
4	0x3f92eab9	1.1477882
5	0xbe6111d0	-0.21979451
6	0x3e238f9e	0.15972754
7	0xbf0aa647	-0.5415997
8	0xbd55e020	-0.052215695
9	0xbe84c63f	-0.259325
10	0xbea1ba79	-0.3158758
11	0xbeabd27e	-0.3355903
12	0xbe19f633	-0.15035324
13	0xbe73f324	-0.2382322
14	0xbc9ad535	-0.018900493
15	0xbef00c12	-0.4688421

encoder.0.attention.QKV.bias f4 [48]
0	0x3da1bd28	0.07897407
1	0x3f61156b	0.87923306
2	0x3f2728c7	0.65296596
3	0x3fa2fe76	1.2733905
4	0x3dd63ad6	0.10460441
5	0x3e8a60de	0.2702703
6	0xbe42b25e	-0.19013354
7	0x3ebc5378	0.36782432
8	0x3d86893a	0.06569143
9	0x3e7c494b	0.24637334
10	0xbd89f861	-0.06736828
11	0x3e6f65f2	0.23378733
12	0xbe9634bf	-0.29337117
13	0x3ee0dab4	0.43916857
14	0x3ed665e8	0.41874623
15	0xbee1509d	-0.44006816
16	0x3eb8ad14	0.36069548
17	0x3ee94cf9	0.45566538
18	0x3e137e79	0.14403714
19	0x3e8813c0	0.26577568
20	0x3e91fad2	0.28511673
21	0x3e5ee460	0.21766806
22	0xbe477c09	-0.1948091
23	0x3ebbe007	0.36694357
24	0xbeba59b5	-0.36396566
25	0x3ebcd389	0.3688014
26	0x3d0332cf	0.032030877
27	0xb9c6def6	-0.00037931622
28	0x3de29312	0.11063208
29	0x3f61f920	0.8827076
30	0x3e84be59	0.25926474
31	0xbe87f051	-0.26550534
32	0x3e4d9dac	0.20079678
33	0x3e937906	0.2880327
34	0x3e9805c7	0.29691908
35	0x3ededefd	0.43529502
36	0xbee7aeca	-0.4525054
37	0x3ef8cbc0	0.4859295
38	0x3fcf957a	1.6217492
39	0xbf1a0480	-0.60163116
40	0x3f20b3cb	0.6277434
41	0xbe4f8b0e	-0.20267889
42	0x3f34c41c	0.7061174
43	0x3ea09fec	0.3137201
44	0xbe000348	-0.12501252
45	0x3dc44618	0.09583682
46	0xbfa3bfdd	-1.2792927
47	0x3d74a8f6	0.059731446

encoder.0.attention.out_proj.bias f4 [16]
0	0x3eb09c83	0.3449441
1	0x3ea3b3b7	0.3197305
2	0x3f68385a	0.90710986
3	0xbd561775	-0.052268464
4	0xbe11b01e	-0.1422734
5	0x3e61f4a2	0.22065976
6	0xbf2e681a	-0.68127596
7	0xbf4b393a	-0.79384196
8	0xb9666af2	-0.0002197435
9	0x3e978490	0.29593325
10	0xbf062f91	-0.5241633
11	0x3f463b88	0.7743459
12	0x3eb66d81	0.3563042
13	0xbe4ba494	-0.19887
14	0xbf2c987c	-0.6742017
15	0x3d5cf815	0.053947527

encoder.0.linear1.bias f4 [16]
0	0xbebf6c22	-0.37387186
1	0xbea37d6b	-0.31931624
2	0xbe187344	-0.1488772
3	0xbe1677f8	-0.14694202
4	0xbee244a5	-0.44192997
5	0x3b501c4b	0.0031755145
6	0xbebb12a1	-0.3653765
7	0xbd8bc54b	-0.0682474
8	0xbc2071e2	-0.009792777
9	0xbea3ca68	-0.3199036
10	0xbdcc79c3	-0.09984162
11	0xbe840205	-0.2578279
12	0xbedea0bc	-0.43482006
13	0xbf3fe4bc	-0.74958396
14	0x3d01d38e	0.031695895
15	0xbe800ec3	-0.25011262

encoder.0.linear2.bias f4 [16]
0	0x3a7dd65e	0.0009683127
1	0xbd026cb9	-0.031841967
2	0xbd97bc47	-0.07408958
3	0x3c18433f	0.0092933765
4	0x3c65e26c	0.014031034
5	0xbd822109	-0.06353957
6	0x3b3e8cab	0.0029075544
7	0x3da24b4e	0.079245195
8	0xbd6d19dc	-0.05788599
9	0xbca46711	-0.020068677
10	0xbd1493c5	-0.036273737
11	0xbccce29d	-0.025010401
12	0x3afe412a	0.0019398083
13	0x3cb8935b	0.022531202
14	0xbc645cef	-0.013938173
15	0x3d2eb57f	0.042653557

encoder.0.norm1.weight f4 [16]
0	0x3f9501f9	1.1641227
1	0x3f87e18d	1.0615708
2	0x3f98ad73	1.1927933
3	0x3f5c83e7	0.86138767
4	0x3fa0fcf2	1.2577193
5	0x3f86d7ee	1.0534647
6	0x3f81f801	1.015381
7	0x3f813e26	1.0097091
8	0x3f89cad6	1.0765026
9	0x3fa0417f	1.2519988
10	0x3f936399	1.151477
11	0x3f8447d2	1.0334418
12	0x3f41a7c1	0.756466
13	0x3f6c9576	0.9241556
14	0x3f824d62	1.0179865
15	0x3fa68bac	1.3011374

encoder.0.norm1.bias f4 [16]
0	0xbe23fc78	-0.16014278
1	0xbed0ad89	-0.40757397
2	0x3f0ebc42	0.5575601
3	0x3e077d96	0.13231501
4	0x3e628b38	0.2212342
5	0xbf166754	-0.58751416
6	0x3efc8f68	0.4932816
7	0xbea71468	-0.32632756
8	0x3d7e0ca2	0.062023766
9	0x3e72d6ed	0.237148
10	0x3eb1bef6	0.34716004
11	0xbeaa0b83	-0.33211908
12	0x3d1333ca	0.03593806
13	0xbd6f227b	-0.058382493
14	0xbeabf157	-0.33582565
15	0xbc8b8cc0	-0.017034888

encoder.0.norm2.weight f4 [16]
0	0x3f87a5e4	1.0597501
1	0x3fa105ba	1.2579873
2	0x3f777ee9	0.96678025
3	0x3f720a72	0.9454719
4	0x3f92ba6a	1.1463139
5	0x3fa5e389	1.2960063
6	0x3f8bd535	1.0924441
7	0x3f899ab9	1.0750343
8	0x3f6df659	0.9295402
9	0x3f900c42	1.1253741
10	0x3f9b77f2	1.214598
11	0x3f6f6ee4	0.9352858
12	0x3f5bd461	0.8587094
13	0x3f4bad41	0.7956124
14	0x3f1964b9	0.59919316
15	0x3f4fa820	0.81115913

encoder.0.norm2.bias f4 [16]
0	0x3d587d08	0.052853614
1	0xbd798bfe	-0.060924523
2	0x3d1c6eb9	0.03819153
3	0x3d018b87	0.031627204
4	0xbccd6a96	-0.025075238
5	0x3c828780	0.015933752
6	0xbcf18b92	-0.029485498
7	0xbce4b8ee	-0.027920213
8	0x3c29f688	0.010373719
9	0xbd2ace4c	-0.041700646
10	0xbd515e55	-0.051115353
11	0x3d8b9ed6	0.06817405
12	0x3cc874c8	0.024469748
13	0x3c800ea4	0.015631981
14	0xbc50458d	-0.012711895
15	0xbd57442a	-0.05255524

encoder.4.0.dw_conv.0.weight f4 [16, 1, 5]
0	0xbe901b73	-0.28145942
1	0xbe8619fe	-0.26191705
2	0x3d73317b	0.05937336
3	0x3ebe56b9	0.3717554
4	0x3e9e3efc	0.30907428
5	0x3ea60a27	0.3242962
6	0x3f365266	0.7121948
7	0xbdaa9d2b	-0.08330759
8	0x3f118f34	0.56859136
9	0x3d3b3bbd	0.045711268
10	0xbe2ba4f7	-0.16762148
11	0xbc0675fb	-0.00820684
12	0xbdaac781	-0.083388336
13	0xbd0bd3fb	-0.034137707
14	0xbe8f18bf	-0.27948567
15	0xbe9656d6	-0.29363126
16	0x3f45e9d8	0.7730994
17	0x3d726290	0.059176028
18	0x3f3b8d4a	0.73262465
19	0xbe55e305	-0.20887382
20	0x3bcc464a	0.006233965
21	0xbf57413c	-0.84083915
22	0x3f34cf74	0.7062905
23	0xbf4e985a	-0.8070122
24	0xbec5caf6	-0.3863141
25	0x3aac5464	0.0013147709
26	0x3f24c752	0.6436664
27	0xbd59a650	-0.053137124
28	0x3f0efbd7	0.5585303
29	0xbd8ca518	-0.06867427
30	0xbd0d4319	-0.034487817
31	0x3eeecb70	0.46639585
32	0x3d9d6e0f	0.07687008
33	0x3f1d6331	0.6147948
34	0x3e4830ef	0.19549917
35	0x3f0386f8	0.5137782
36	0x3ef2e2a9	0.47438553
37	0xbe0564cf	-0.13026737
38	0x3eef28c3	0.46710786
39	0x3f21c161	0.631857
40	0x3e783129	0.24237503
41	0x3f0f2d2d	0.5592831
42	0xbd47f8a7	-0.048821118
43	0x3f03e379	0.5151897
44	0x3eaa1b8d	0.33224145
45	0x3f25938f	0.6467828
46	0x3f03f9f1	0.51553255
47	0xbec8b584	-0.39200985
48	0xbe1c1805	-0.15243538
49	0x3dc6311d	0.09677336
50	0x3de0e398	0.1098091
51	0x3f1a9bfd	0.6039427
52	0xbe7a395e	-0.24435946
53	0x3f16e3af	0.5894117
54	0x3e173c0f	0.14769004
55	0x3d0d2863	0.034462344
56	0x3f48f2db	0.7849557
57	0xbdd08852	-0.10182251
58	0xbf2e5170	-0.68093014
59	0xbe2ab9d5	-0.16672452
60	0xbf216db5	-0.63058025
61	0x3ea7265f	0.32646462
62	0x3eeb362f	0.45939776
63	0x3ecb5bfa	0.3971861
64	0xbef12c79	-0.47104242
65	0xbd0fd573	-0.03511567
66	0xbeb52dc4	-0.3538648
67	0xbf09f6e8	-0.53892374
68	0xbee1e06c	-0.44116533
69	0xbdd4c1f0	-0.10388553
70	0xbf3a74e6	-0.7283462
71	0xbd8a6e4e	-0.0675932
72	0xbd53fd0e	-0.051755004
73	0x3f46a53e	0.7759589
74	0x3e7e0471	0.24806382
75	0xbe9fa6c5	-0.31181923
76	0x3f117c94	0.56830716
77	0xbd880301	-0.06641198
78	0x3ec8660e	0.39140362
79	0xbe8be60f	-0.27323958

encoder.4.0.dw_conv.0.bias f4 [16]
0	0xbe32c23c	-0.17456907
1	0x3e8b61b4	0.2722298
2	0xbe3992aa	-0.18122354
3	0x3d91f854	0.07127443
4	0x3e5dc57b	0.21657364
5	0x3e2b36db	0.16720144
6	0x3cce5d2e	0.025190916
7	0x3d889b47	0.06670242
8	0x3e4fc944	0.2029162
9	0x3e0f2740	0.13979816
10	0x3f33cf84	0.7023852
11	0x3dc5ae44	0.09652379
12	0x3eb7f827	0.35931513
13	0xbf032366	-0.5122589
14	0xbd94f710	-0.07273686
15	0x3e330c8b	0.17485254

encoder.4.0.pw_conv.0.weight f4 [32, 16, 1]
0	0xbe90b9a2	-0.28266627
1	0xbde2f97c	-0.110827416
2	0xbd7b9311	-0.06141955
3	0x3e583fcf	0.21118091
4	0x3ed2e0bf	0.41187093
5	0xbedd4287	-0.4321482
6	0x3ec15680	0.37761307
7	0x3f0f985e	0.5609187
8	0x3f42d2e5	0.7610305
9	0x3f369acf	0.7132997
10	0x3e0742e8	0.13209116
11	0xbde5176c	-0.11186108
12	0x3e0a5706	0.1350976
13	0x3e14a0eb	0.1451451
14	0xbec1ddc1	-0.37864497
15	0xbe87f98d	-0.2655758
16	0x3f691400	0.9104614
17	0x3e77dcd4	0.24205333
18	0xbd506ae5	-0.050883193
19	0x3ed6ad90	0.41929293
20	0xbe7a6b21	-0.24454929
21	0x3ca5d8ab	0.020244917
22	0xbda9e38c	-0.08295354
23	0xbe85668f	-0.26054808
24	0x3c60db23	0.013724121
25	0xbd3a8cf0	-0.045544565
26	0xbf198345	-0.59965926
27	0x3d630824	0.055427685
28	0x3dee00ef	0.11621272
29	0xbe252a4e	-0.16129419
30	0x3d8e9e97	0.06963842
31	0x3eb685b4	0.35648882
32	0xbd97ab96	-0.07405774
33	0x3ea05e1a	0.31321794
34	0xbc4bfa00	-0.012449741
35	0x3ddd278c	0.107985586
36	0xbe8983b3	-0.2685829
37	0xbdec3e3b	-0.11535307
38	0xbd3f973c	-0.046775088
39	0x3e7592f5	0.23981841
40	0x3dbc73a8	0.09201747
41	0x3e8b1e4e	0.27171558
42	0xbeb5df9e	-0.3552217
43	0xbd0a2c9d	-0.033733953
44	0x3c2ef8ec	0.010679465
45	0xbe0f956d	-0.14021845
46	0x3f22981e	0.6351336
47	0xbcbcf57c	-0.023066275
48	0xbca38557	-0.019961042
49	0x3eaf988b	0.3429607
50	0xbe46971b	-0.1939358
51	0xbd474bc2	-0.048656233
52	0x3f55c43f	0.8350257
53	0xbbcc7317	-0.0062393057
54	0xbd8923d3	-0.06696286
55	0x3ea934e2	0.3304816
56	0x3e543677	0.20723902
57	0x3ecaf501	0.39640048
58	0xbea32a76	-0.31868333
59	0x3f2ed208	0.6828923
60	0xbf40233b	-0.7505376
61	0x3e4a11dc	0.19733375
62	0xbf45cf27	-0.77269214
63	0x3de85c4d	0.1134573
64	0x3e2402fc	0.16016763
65	0x3e35bd09	0.17747892
66	0x3e347ba5	0.17625292
67	0xbeb9f1fb	-0.3631743
68	0x3d278391	0.040896956
69	0xbeea2262	-0.45729357
70	0xbe4cfbaa	-0.20017877
71	0xbda4b08d	-0.08041487
72	0xbe89f78c	-0.26946676
73	0xbe8ace42	-0.27110487
74	0x3dedcc98	0.11611289
75	0xbe4845c7	-0.19557868
76	0x3e4c2879	0.19937314
77	0xbda2401b	-0.079223834
78	0xbec3bba3	-0.38229093
79	0x3e7b44f3	0.24538021
80	0x3f188302	0.595749
81	0x3e2a3859	0.16623057
82	0x3e421024	0.1895147
83	0x3e2a99c7	0.16660224
84	0x3f421950	0.75819874
85	0xbe7691d7	-0.24079071
86	0x3e2e47f9	0.17019643
87	0xbe0d248d	-0.13783474
88	0xbf0b217d	-0.54347974
89	0x3cb16cf5	0.0216584
90	0x3edc7547	0.43058226
91	0x3e1730f0	0.14764762
92	0x3eb5ba9a	0.35493928
93	0x3e1c3cd1	0.15257575
94	0x3ed40566	0.4141037
95	0x3df43ed5	0.11926047
96	0x3e9094f3	0.2823864
97	0x3e01fb3e	0.12693498
98	0x3d292d7b	0.04130314
99	0x3b90b900	0.004416585
100	0x3ef45076	0.47717637
101	0x3d929875	0.07157985
102	0xbd988215	-0.07446686
103	0xbed03fab	-0.40673575
104	0xbea85ffb	-0.32885727
105	0xbb1d2b9d	-0.0023982294
106	0xbe1106a2	-0.14162686
107	0x3e94ddbc	0.2907542
108	0x3e82f9f9	0.2558134
109	0x3c5b41ce	0.013382388
110	0xbf2cd44f	-0.6751146
111	0x3d8303e6	0.06397228
112	0xbd5c120e	-0.053728156
113	0xbf02c3e4	-0.51080155
114	0x3e42e393	0.19032125
115	0x3ca64314	0.020295657
116	0xbe5464a6	-0.2074152
117	0xbe267561	-0.16255714
118	0xbd9c5888	-0.076340735
119	0x3e06c289	0.13160147
120	0x3d8ac782	0.06776334
121	0x3ea3cf8e	0.3199429
122	0xbe560b26	-0.2090269
123	0x3f1d6745	0.614857
124	0xbd67b023	-0.05656446
125	0x3e8cf89a	0.27533418
126	0x3e80a946	0.25129145
127	0xbe6ce56f	-0.23134397
128	0xbef2c68f	-0.47417113
129	0xbe7b81b5	-0.24561198
130	0xbe2029eb	-0.1564099
131	0x3daddd2e	0.08489452
132	0x3dee248d	0.11628065
133	0x3f0565c0	0.52108383
134	0x3f129412	0.5725719
135	0x3e374440	0.17897129
136	0x3e8d7c05	0.27633682
137	0xbe6cd8f3	-0.23129635
138	0xbf0c5c84	-0.5482867
139	0x3d8f1f77	0.06988423
140	0xbe9490ea	-0.2901681
141	0xbd22db37	-0.03975984
142	0x3d78246a	0.060581602
143	0x3e9e9818	0.30975413
144	0xbdd936aa	-0.106061295
145	0xbeb3216d	-0.3498644
146	0x3e5be3e7	0.21473657
147	0xbe27697f	-0.16348837
148	0xbe0a9927	-0.13534985
149	0x3e07da40	0.1326685
150	0xbd6a7c76	-0.0572476
151	0x3d634cb4	0.05549307
152	0x3e0decd3	0.13859873
153	0xbe85cf0b	-0.26134524
154	0xbd67769e	-0.056509607
155	0x3e0adcf5	0.13560851
156	0x3e0ebea0	0.13939905
157	0x3e51fa56	0.20505652
158	0xbe83ebf9	-0.2576597
159	0xbead9cc4	-0.33908665
160	0x3eea5308	0.45766473
161	0x3f0020c5	0.5005
162	0x3bbcc9b3	0.005761349
163	0x3e0c191a	0.1368145
164	0x3ecc9a23	0.39961347
165	0x3c6c3d38	0.014418893
166	0x3d9aed3e	0.075647816
167	0x3cd51840	0.02601254
168	0x3c774aa7	0.015093482
169	0xbe56c868	-0.20974886
170	0x3da0532c	0.07828364
171	0xbe532846	-0.20620832
172	0x3f155450	0.58331776
173	0xbc1e4e34	-0.0096622
174	0x3e041b00	0.12900925
175	0x3e42c8d7	0.19021927
176	0xbe989304	-0.29799664
177	0xbf04a8b7	-0.5181994
178	0xbe4b5beb	-0.19859283
179	0x3eccfa6d	0.4003481
180	0x3e471122	0.1944013
181	0x3f09431c	0.53618026
182	0x3dd4a90e	0.10383807
183	0x3ef26f75	0.4735066
184	0x3e15e42b	0.1463782
185	0x3e5f589d	0.21811147
186	0x3f57eb1d	0.8434313
187	0x3e0c5226	0.13703212
188	0xbe70a1e5	-0.23499258
189	0xbe9cc0d9	-0.3061588
190	0xbd7bffef	-0.061523374
191	0xbde89099	-0.11355705
192	0x3e335320	0.17512178
193	0x3eaa250a	0.33231384
194	0xbe288975	-0.16458686
195	0xbf8c02d3	-1.0938362
196	0x3e02b6db	0.12765066
197	0x3de41c6a	0.11138232
198	0xbd759f08	-0.059966117
199	0xbcebbace	-0.028775599
200	0xbef3062e	-0.47465652
201	0xbccd3585	-0.025049934
202	0xbeaa2c8c	-0.33237112
203	0x3e89f8a7	0.2694752
204	0xbebee361	-0.3728285
205	0x3e832fe3	0.25622472
206	0xbf2641ee	-0.6494435
207	0x3d8b1cce	0.067926034
208	0xbe9e2929	-0.30890778
209	0x3e85bb78	0.2611959
210	0xbe5a3904	-0.21310812
211	0xbe12771a	-0.14303246
212	0xbf5bfe37	-0.85934776
213	0x3efe58c6	0.49677104
214	0x3f02fce1	0.5116711
215	0xbe136769	-0.14394917
216	0xbda9e8fa	-0.0829639
217	0x3f4c3b0c	0.797776
218	0x3e133fa7	0.1437975
219	0x3e28bc5b	0.16478102
220	0x3d704122	0.058655865
221	0x3e3226af	0.17397569
222	0x3df3583a	0.11882062
223	0x3ec4ad07	0.3841326
224	0x3d195fe6	0.03744497
225	0x3ecae4b0	0.396276
226	0xbe0b5c45	-0.13609417
227	0xbf3bf528	-0.73420954
228	0x3e8b814e	0.2724709
229	0xbef45136	-0.4771821
230	0x3d8b7ca0	0.0681088
231	0xbebd5a5a	-0.36982995
232	0x3c947d63	0.018126195
233	0xbdd51bf5	-0.10405723
234	0xbb50039d	-0.0031740435
235	0xbf2b4779	-0.66905934
236	0xbf0f43f7	-0.5596308
237	0x3e216253	0.15760164
238	0xbf66d462	-0.9016782
239	0x3dc41322	0.09573962
240	0x3ccc7015	0.024955789
241	0x3e6d48fe	0.23172376
242	0xbe15c7da	-0.14627019
243	0xbebbd939	-0.36689165
244	0x3f13b492	0.57697403
245	0xbee7ef85	-0.45299926
246	0x3d6d9f55	0.05801328
247	0xbd0d62ef	-0.03451818
248	0x3e02ab79	0.12760724
249	0x3ef81bde	0.4845876
250	0x3ece1e47	0.40257475
251	0x3e9e4208	0.30909753
252	0x3e90e8f5	0.28302732
253	0xbe841ae8	-0.25801778
254	0xbe447fb7	-0.19189344
255	0xbd4450f9	-0.047928784

encoder.4.0.pw_conv.0.bias f4 [32]
0	0x3e033436	0.12812886
1	0xbeb2c560	-0.3491621
2	0xbdfa83d3	-0.12232175
3	0xbddaa923	-0.106767915
4	0x3f425a20	0.7591877
5	0xbdc468ea	-0.09590323
6	0x3dcff354	0.10153833
7	0xbed4e8a5	-0.41583744
8	0x3e7fe963	0.24991374
9	0xbe9de230	-0.3083663
10	0x3f2f687f	0.68518823
11	0x3f373360	0.7156277
12	0xbe0f5ae0	-0.1399951
13	0x3ea09efd	0.31371298
14	0xbd915698	-0.070965946
15	0x3eaf130b	0.34194216
16	0xbe0b5e89	-0.13610281
17	0x3f03ea7b	0.51529664
18	0x3f1474f7	0.57990974
19	0xbeb96c08	-0.36215234
20	0xbe8e5e47	-0.27806303
21	0xbe31ed66	-0.17375717
22	0x3e3b77cb	0.18307416
23	0x3dfccc93	0.12343707
24	0xbc60c3af	-0.01371853
25	0x3e95ea2b	0.29280218
26	0xbe4940c5	-0.19653614
27	0xbb52aa72	-0.003214505
28	0x3c615e0e	0.013755335
29	0xbe4bce85	-0.19903
30	0x3e9e4437	0.3091142
31	0xbe4d2301	-0.20032884

encoder.4.0.proj.weight f4 [32, 16, 1]
0	0x3eb1fdfe	0.34764093
1	0x3d92eca0	0.07174039
2	0x3c27e757	0.010248027
3	0xbda2d4ae	-0.07950722
4	0xbdf21197	-0.11819761
5	0xbe41a732	-0.18911436
6	0x3ebf234d	0.3733162
7	0x3eaa533c	0.33266628
8	0x3e06e811	0.13174464
9	0x3e7ea729	0.24868454
10	0x3dd69cea	0.10479148
11	0xbd066316	-0.03280934
12	0x3e9d396f	0.3070788
13	0xbe663782	-0.22482112
14	0xbd63c1d8	-0.055604786
15	0xbe98bb0a	-0.298302
16	0xbe3a4558	-0.18190515
17	0x3eaccf65	0.3375198
18	0xbe4ca9b2	-0.19986609
19	0x3e5a3982	0.21311
20	0xbdf6c1e5	-0.12048701
21	0xbdf078f3	-0.11741819
22	0x3d40d644	0.04707934
23	0xbe0f1d51	-0.13976027
24	0xbdde9a99	-0.10869331
25	0xbc137ac7	-0.00900144
26	0xbeadeba7	-0.3396885
27	0xbe2f2fed	-0.17108126
28	0xbe82aaca	-0.25520927
29	0x3ebb591b	0.3659142
30	0x3d6e8d4b	0.058240216
31	0x3eb5f687	0.35539648
32	0x3ea48a75	0.32136884
33	0x3e34dda7	0.17662679
34	0xbe08f69b	-0.13375323
35	0xbe7d5862	-0.24740747
36	0x3d55294b	0.052041333
37	0xbed4834f	-0.4150643
38	0xbebdf694	-0.37102187
39	0xbec616c1	-0.38689235
40	0xbe300f9d	-0.17193456
41	0xbe6b15c5	-0.22957523
42	0xbcd15914	-0.025555171
43	0xbf474e2b	-0.7785365
44	0x3cbe1c19	0.023206757
45	0x3e95726b	0.29188856
46	0xbf0acac4	-0.54215646
47	0xbbe1053b	-0.0068670786
48	0x3e3e6560	0.18593359
49	0xbe49e7f1	-0.19717385
50	0xbe3ea40f	-0.18617271
51	0x3cbada13	0.022809064
52	0xbe85fef6	-0.26171082
53	0x3f04b090	0.51831913
54	0xbe0388d0	-0.12845159
55	0xbe828104	-0.25489056
56	0xbe3bb361	-0.18330146
57	0x3bd5117d	0.006502329
58	0x3e83489e	0.2564134
59	0x3f2c1313	0.67216605
60	0xbe8a1ad1	-0.26973584
61	0xbe53fa4b	-0.20700948
62	0x3c261e86	0.010139113
63	0x3d07054e	0.032964043
64	0x3f0b390b	0.54383916
65	0x3e0830fc	0.13299936
66	0xbe48820d	-0.1958086
67	0xbe5f5247	-0.2180873
68	0x3e8293a2	0.2550326
69	0xbe05ccd7	-0.13066421
70	0x3d2ae5a0	0.041722894
71	0x3dbed8a9	0.093186684
72	0x3e9b10ed	0.3028635
73	0xbd1b1e29	-0.03787056
74	0xbe917a2c	-0.28413522
75	0xbe3cae06	-0.1842576
76	0x3ea447ab	0.32085928
77	0x3d412df0	0.04716295
78	0xbf00368e	-0.50083244
79	0x3f159a67	0.58438724
80	0x3eee4eb8	0.46544433
81	0x3e35ce7e	0.17754552
82	0x3f3ee91d	0.7457445
83	0xbced161c	-0.028941207
84	0x3e74c17f	0.23901938
85	0xbe1554f2	-0.14583185
86	0x3e6f5cae	0.23375198
87	0x3de47f4e	0.11157094
88	0xbda8ba2e	-0.08238636
89	0xbe072702	-0.13198474
90	0xbd7fbe11	-0.06243712
91	0xbd92fbbc	-0.07176921
92	0x3e21f00f	0.15814231
93	0x3aa87283	0.001285151
94	0x3e2af220	0.16693926
95	0xbe134e19	-0.1438526
96	0x3dd56395	0.104193844
97	0x3ea877af	0.3290381
98	0xbe6d1d76	-0.2315577
99	0xbdc9c42e	-0.098518714
100	0xbd91d879	-0.07121367
101	0xbe69cd9e	-0.22832343
102	0x3e2b28dc	0.16714805
103	0x3f06fbd6	0.5272802
104	0x3e70f09e	0.23529288
105	0x3df5dbb9	0.120047994
106	0xbea3765d	-0.31926242
107	0x3e9b2dfe	0.30308527
108	0x3e06d410	0.13166833
109	0x3e9b3633	0.30314788
110	0xbf1b2020	-0.60595894
111	0x3e2fce9e	0.17168662
112	0x3d6899b5	0.05678721
113	0xbd909ede	-0.070615515
114	0x3e151312	0.14558056
115	0x3e9283b1	0.28616098
116	0xbe9514c6	-0.2911741
117	0x3edecda6	0.43516272
118	0xbedf4da5	-0.43613926
119	0xbe93ed68	-0.28892064
120	0x3e6c0586	0.23048982
121	0x3f0c76c7	0.5486874
122	0xbe9d121f	-0.30677888
123	0x3f349a0f	0.70547575
124	0xbd9081ec	-0.07056031
125	0xbe00b41f	-0.1256871
126	0xbea8efcb	-0.32995448
127	0xbd99ece0	-0.075158834
128	0xbe740a3d	-0.2383203
129	0xbec0c196	-0.37647694
130	0xbf0454b6	-0.5169176
131	0x3eac9c69	0.3371308
132	0xbf2fbc6d	-0.6864689
133	0x3ecbf6a0	0.39836597
134	0x3f132f5e	0.5749415
135	0xbd9ec69e	-0.07752727
136	0xbd3752c6	-0.044756673
137	0xbf635f4e	-0.888173
138	0xbf0d7410	-0.5525522
139	0x3d1a670a	0.037695922
140	0xbe7f3a69	-0.24924625
141	0x3d25eb88	0.040507823
142	0x3e2084e8	0.156757
143	0x3ebaa2a7	0.3645222
144	0x3d6c53cf	0.057697114
145	0xbea824a4	-0.32840455
146	0x3de41ba2	0.11138083
147	0xbe8532fb	-0.26015458
148	0xbdd8ec0a	-0.10591896
149	0xbe3af2fd	-0.18256755
150	0xbed69231	-0.4190841
151	0xbe175fca	-0.14782634
152	0xbc2f8db3	-0.010714936
153	0xbe9d5163	-0.30726156
154	0xbeb9adfe	-0.36265558
155	0xbe9d19e9	-0.3068383
156	0xbe80a783	-0.251278
157	0xbdf7d3f7	-0.12100976
158	0xbbdaad41	-0.0066734855
159	0x3e2c7ee5	0.16845281
160	0x3f19c2a6	0.60062635
161	0x3ef8287f	0.48468396
162	0xbe99fa64	-0.30073845
163	0x3eea12c1	0.45717433
164	0x3df04a05	0.11732868
165	0xbe0407a9	-0.12893547
166	0x3ec9c21d	0.3940591
167	0x3e81338a	0.25234634
168	0xbe435baa	-0.19077936
169	0xbefb1139	-0.49036577
170	0xbe67d119	-0.22638358
171	0xbe958e2d	-0.29210034
172	0x3e811e6e	0.25218529
173	0x3e2fd937	0.17172705
174	0x3e77a349	0.24183382
175	0xbd65daab	-0.05611674
176	0x3f0277ee	0.5096425
177	0xbe4d7059	-0.20062388
178	0x3db865b7	0.090037756
179	0x3e94336a	0.28945476
180	0xbe1daed0	-0.15398717
181	0x3f21d7dd	0.63220006
182	0x3e66f2c7	0.2255355
183	0x3eaaba37	0.33345196
184	0x3d923db1	0.07140673
185	0xbda5b9d3	-0.08092084
186	0x3e88201a	0.26586992
187	0x3c415ce9	0.011801937
188	0xbe7e0f54	-0.24810535
189	0xbe859115	-0.2608725
190	0xbd881965	-0.066454686
191	0xbdc3ffa8	-0.09570247
192	0xbd97e3e4	-0.074165136
193	0x3e8b9fe4	0.27270424
194	0xbe966ccf	-0.2937989
195	0xbf29569d	-0.66147786
196	0x3d9572c4	0.072972804
197	0x3ec59f4c	0.38598096
198	0x3e99fdaf	0.30076358
199	0x3edc1ce1	0.42990783
200	0x3e137472	0.14399889
201	0x3e34f8b4	0.17672998
202	0xbe65fd36	-0.22459874
203	0x3f1bbf1d	0.6083849
204	0xbe5cb3d9	-0.21552981
205	0x3e94b4cb	0.29044184
206	0xbed60b27	-0.41805384
207	0x3f0011a8	0.5002694
208	0xbebb4f8b	-0.36584124
209	0x3e2838db	0.16427939
210	0x3f01fdb9	0.50777775
211	0xbea47b55	-0.32125345
212	0x3e9c4126	0.30518454
213	0x3dd12436	0.10211985
214	0x3e7a4048	0.24438584
215	0xbe966b1c	-0.29378593
216	0x3d4cd01c	0.050003156
217	0xbcc24e23	-0.0237189
218	0x3ddca687	0.1077395
219	0x3e0b71f2	0.13617685
220	0x3ede9233	0.43470916
221	0xbe875452	-0.2643152
222	0x3e3773ba	0.1791524
223	0xbe4fdc3f	-0.20298861
224	0x3c41e9c2	0.011835517
225	0xbdb56bfa	-0.088584855
226	0xbe56e934	-0.20987397
227	0x3e14f1e2	0.14545396
228	0x3efe0b80	0.4961815
229	0x3edbf7dd	0.42962542
230	0x3ea7607e	0.32690805
231	0x3ea7f730	0.32805777
232	0x3e95a0ef	0.29224345
233	0xbf2ba075	-0.67041713
234	0xbe7e9b31	-0.24863888
235	0x3eabbac5	0.3354093
236	0xbe11495d	-0.14188142
237	0xbe7f01b1	-0.24902989
238	0xbe1e4703	-0.15456776
239	0xbf0a4fd8	-0.5402808
240	0x3ed94e56	0.42442578
241	0x3ea097b0	0.31365728
242	0xbe411072	-0.1885393
243	0xbd58b36a	-0.052905478
244	0x3ce9a646	0.028521668
245	0xbe8fb291	-0.28065923
246	0x3e81fc10	0.2538762
247	0xbea88f9b	-0.32922062
248	0x3eab32d7	0.33437225
249	0x3f0df59a	0.55452883
250	0x3edd8b72	0.4327045
251	0x3ea9980c	0.33123815
252	0xbec932d9	-0.39296606
253	0x3e90f763	0.2831374
254	0xbe5dca6b	-0.21659248
255	0xbe447c31	-0.19188

encoder.4.0.proj.bias f4 [32]
0	0x3ea5ee38	0.3240831
1	0xbeac9ba3	-0.3371249
2	0xbdb8c2aa	-0.09021504
3	0xbe7ef1eb	-0.24896972
4	0x3f452bd0	0.7701998
5	0x3bfcd4fc	0.0077158194
6	0x3dd376c9	0.10325391
7	0xbe1b11d1	-0.15143515
8	0x3d7e3190	0.062058985
9	0xbe8b6ef1	-0.2723308
10	0x3f2e8e7f	0.6818618
11	0x3f321c7e	0.69574726
12	0xbeb4df63	-0.3532668
13	0x3eb0e80b	0.34552035
14	0x3e5759a2	0.21030286
15	0x3cea45c6	0.028597724
16	0xbdf7121e	-0.120640025
17	0x3ebc0267	0.36720583
18	0x3f055900	0.5208893
19	0xbedbbf22	-0.4291926
20	0x3de86073	0.11346521
21	0x3e4b88c0	0.19876385
22	0xbdaabb8a	-0.083365515
23	0xbc2f04de	-0.010682313
24	0x3ce4cd72	0.027929995
25	0x3e870ccd	0.26376954
26	0x3d6fd1d3	0.058549713
27	0xbe30835c	-0.1723761
28	0xbe174e0c	-0.14775866
29	0xbdf225ab	-0.11823591
30	0x3ebeebdd	0.37289324
31	0xbe883c1c	-0.2660836

encoder.5.attention.QKV.bias f4 [96]
0	0x3f144ce8	0.5792985
1	0x3ec7d04d	0.39026108
2	0x3ed930a5	0.42419925
3	0xbf81712c	-1.0112662
4	0xbf3467f0	-0.70471096
5	0x3ed9d503	0.42545328
6	0xbf133245	-0.5749858
7	0x3dcfd363	0.10147741
8	0xbf06621a	-0.5249344
9	0xbe3a4d95	-0.18193658
10	0x3f096caf	0.53681463
11	0xbe5401c3	-0.20703797
12	0xbf0a516f	-0.5403051
13	0x3dc2333b	0.09482428
14	0xbed269e3	-0.4109641
15	0xbeb5e38b	-0.35525164
16	0xbe0665c9	-0.13124765
17	0x3e9163f4	0.2839657
18	0x3e8148ff	0.25251004
19	0x3e71f986	0.23630342
20	0xbe6626c4	-0.22475725
21	0xbddb8aff	-0.10719871
22	0x3df0e512	0.11762442
23	0xbd46529d	-0.04841863
24	0xbde82693	-0.113354824
25	0x3e459835	0.19296344
26	0x3ec1ad76	0.37827653
27	0xbefff7d4	-0.49993765
28	0xbd77bfab	-0.060485523
29	0x3f1c42d5	0.6103948
30	0x3b79af0d	0.0038098723
31	0xbe10f064	-0.14154202
32	0x3f2e079a	0.6798035
33	0xbdf18961	-0.11793781
34	0x3db3cc0e	0.08779155
35	0x3df7041e	0.12061332
36	0xbedf2220	-0.43580723
37	0x3e7d9852	0.24765137
38	0xbe5c8565	-0.21535261
39	0xbb9ce5cf	-0.0047881375
40	0x3dc85236	0.097813055
41	0xbdb00b43	-0.08595898
42	0xbceeb81a	-0.02914052
43	0x3d8ca42e	0.06867252
44	0xbddf2618	-0.10895938
45	0x3e58e2dc	0.2118029
46	0xbe7d4f78	-0.24737346
47	0x3e82d5e5	0.25553814
48	0x3d898e9d	0.067166544
49	0xbe9c23e0	-0.3049612
50	0x3dcb598e	0.099291906
51	0xbe25facf	-0.16208957
52	0x3ea4d7b4	0.32195818
53	0x3da65e89	0.081235
54	0xbe43f649	-0.19136919
55	0x3e6e2781	0.23257257
56	0xbd8f4831	-0.06996191
57	0xbce3b306	-0.027795326
58	0x3ba8c506	0.00515044
59	0x3d8075ad	0.06272445
60	0x3d7e0a75	0.06202169
61	0xbe33adf8	-0.17546833
62	0x3e9fb266	0.31190795
63	0x3df2270f	0.11823856
64	0xbdd2f58f	-0.10300743
65	0xbe0389e4	-0.1284557
66	0xbd4b7123	-0.049668442
67	0xbd3fd631	-0.04683513
68	0xbe1993f3	-0.14997844
69	0xbde43a0e	-0.111438856
70	0x3eaea715	0.34111848
71	0xbe324999	-0.17410888
72	0x3ebd5d0d	0.36985055
73	0x3e5f5596	0.21809992
74	0x3e901fec	0.28149354
75	0x3d3b3f78	0.045714825
76	0x3dc8113d	0.09768913
77	0xbe81484b	-0.25250468
78	0xbc6d39c4	-0.014479104
79	0xbc4b5c17	-0.012412093
80	0xbe71fc00	-0.23631287
81	0xbe6c87db	-0.230987
82	0x3d997cc1	0.07494498
83	0x3e95192d	0.2912077
84	0x3e9dbbcc	0.3080734
85	0x3d8f704b	0.0700384
86	0x3d68b58b	0.056813758
87	0x3e59facd	0.21287079
88	0xbde6e1ab	-0.112735115
89	0xbec59f81	-0.38598254
90	0xbe6b73a2	-0.22993329
91	0xbea64d1b	-0.32480702
92	0xbc893e0c	-0.016753219
93	0x3d51c657	0.051214542
94	0xbe15dbfc	-0.14634699
95	0xbe0eb2f4	-0.13935453

encoder.5.attention.out_proj.bias f4 [32]
0	0xbe4b0699	-0.19826736
1	0x3def6431	0.11689032
2	0xbf720937	-0.9454531
3	0xbe989e95	-0.29808488
4	0x3e6d1be5	0.23155172
5	0xbdd41d99	-0.10357208
6	0x3e7751ef	0.24152349
7	0xbe5768cf	-0.21036075
8	0xbdf6479c	-0.12025377
9	0xbf3c0b3d	-0.7345465
10	0x3df50ffe	0.11965941
11	0x3ce9e6ab	0.028552374
12	0x3a942ef2	0.0011305495
13	0x3d9a5a72	0.07536782
14	0xbeb66232	-0.35621792
15	0xbd98250f	-0.07428943
16	0xbd7c51a0	-0.06160128
17	0x3db0a5fa	0.086254075
18	0x3eb4cb53	0.35311374
19	0xbc190bfe	-0.009341238
20	0xbe0f04a6	-0.13966617
21	0x3e3296a6	0.1744028
22	0x3e367163	0.17816691
23	0xbf28c737	-0.6592898
24	0xbd64d567	-0.05586758
25	0xbde0bae0	-0.109731436
26	0xbe6bc2a3	-0.23023467
27	0x3f825b05	1.0184027
28	0x3ebb6906	0.36603564
29	0xbe6c1c5f	-0.23057698
30	0x3f05f5e8	0.5232835
31	0xbe5bd801	-0.21469118

encoder.5.linear1.bias f4 [32]
0	0xbc43e750	-0.011957005
1	0xbe77e3f0	-0.24208045
2	0xbecba23f	-0.3977222
3	0xbe3e045f	-0.18556355
4	0x3d5ff5ba	0.054677702
5	0xbd6ec7e7	-0.05829611
6	0xbe8f3694	-0.27971327
7	0xbe261610	-0.16219354
8	0xbea95dc7	-0.3307936
9	0xbd059c63	-0.032619845
10	0xbe8d92ae	-0.2765097
11	0xbe568364	-0.20948559
12	0xbdb7a450	-0.08966887
13	0xbe811bb9	-0.25216463
14	0xbded437c	-0.11585137
15	0xbd9d90e3	-0.076936506
16	0xbe8b9c07	-0.27267477
17	0xbcf5f723	-0.03002507
18	0xbe8e5b6d	-0.27804127
19	0xbe2c442f	-0.16822885
20	0xbe918d7a	-0.2842825
21	0xbdcca943	-0.099932216
22	0xbe104737	-0.14089666
23	0xbd978cdf	-0.07399916
24	0xbe5b706b	-0.21429603
25	0xbe574d1f	-0.21025513
26	0xbd98ae49	-0.07455117
27	0xbe35ace6	-0.17741737
28	0xbea48fe2	-0.32141024
29	0xbe22e6c7	-0.15908347
30	0xbdaa5fe9	-0.08319075
31	0xbdeb0e40	-0.11477327
